pythonProject/hand_gesture_recognition/model/keypoint_classifier/keypoint_classifier.tflite (tflite, 6676 bytes, 6 tensors)

sequential/dense/BiasAdd/ReadVariableOp f4 [20]
000000 48 07 4b 3f a5 2d 2e 3f ce 6c 30 be 92 5f 03 be
       0.79307985 0.680384 -0.17229006 -0.12829426
000010 8c 01 e8 bd 67 48 88 be f8 ee fa be 80 23 0b 3e
       -0.1132842 -0.2661774 -0.49010444 0.13587761
000020 23 b9 0e 3f f8 71 2c bf 14 f0 9c 3e d4 73 ec be
       0.55751246 -0.673614 0.30651915 -0.4618212
000030 48 36 84 bd 6f cf 76 3e 5c a8 01 3f 2b 59 84 be
       -0.06455666 0.24102567 0.5064752 -0.2584928
000040 64 92 9e 3c 8b 60 16 bf aa 76 b2 be 4c e5 43 bf
       0.019356914 -0.5874106 -0.34856158 -0.76521754

sequential/dense_2/BiasAdd/ReadVariableOp f4 [7]
000000 34 0e c4 3e d0 6e 9c 3e 5a bb 8e 3d a8 22 0e 3d
       0.38292086 0.30553293 0.06969328 0.03470102
000010 4f b2 29 3e 3c 14 87 bf a6 ee 48 be
       0.16571926 -1.055305 -0.19622287

sequential/dense_1/BiasAdd/ReadVariableOp f4 [10]
000000 b6 fe a4 3e 62 58 d8 3e 25 0a 06 3f 91 34 6f 3e
       0.3222558 0.4225493 0.5235923 0.23359896
000010 98 c8 57 be e8 08 d5 3e 0f 8c 09 3f 65 01 db 3e
       -0.21072614 0.41608357 0.5372934 0.427745
000020 ca 36 40 3f a7 ff 80 3d
       0.750836 0.06298762

sequential/dense/MatMul f4 [20, 42]
000000 66 63 74 be 64 02 81 3e e8 ce 0a 3f be 95 92 bd
       -0.23866042 0.25197136 0.54221964 -0.07157467
000010 62 6d 9b 3e c3 18 5b be 66 90 93 3e c5 97 74 3c
       0.3035689 -0.21396165 0.28821105 0.014928763
000020 fd b7 85 3e d8 ef 28 bc ee 8c 3f 3e a7 48 9d 3e
       0.26116934 -0.010311089 0.18706104 0.30719492
000030 4d 7a 0d 3e 28 fd 61 3e fc ae ab 3d 9c 33 cf 3c
       0.13816185 0.22069228 0.08382985 0.025293164
000040 3c 84 d5 3d 8e 49 b9 3b 6e 0d 1f 3e 0a b0 a2 3e
       0.10425612 0.0056545204 0.15532467 0.31774932
000050 1f 34 0b 3e 4e ac 32 3e 2c 54 5f 3c b8 8e 16 be
       0.13594101 0.17448542 0.013630908 -0.1470288
000060 f6 1a 8b 3d 59 1d 16 bf 63 f2 a9 be 5c 96 d5 3e
       0.06792252 -0.5863853 -0.3319274 0.41716278
000070 5c 60 3a bd b6 07 4d 3e 31 a6 c9 bc fc 03 8c bb
       -0.04550205 0.20022473 -0.024615379 -0.004272936
000080 eb ab 8f bd d8 98 33 be 0d d0 a0 be 3b 1d d0 3e
       -0.070152126 -0.17538774 -0.3140873 0.406473
000090 24 43 2c be b1 68 b0 ba cb cf 0d bf b1 a8 bd be
       -0.16822487 -0.0013458935 -0.5539519 -0.37042764
0000a0 45 50 1a bf 45 a6 05 bf 80 4f d4 3b a0 23 8b 3c
       -0.6027873 -0.5220683 0.0064792037 0.01698476
0000b0 30 b4 f2 3e ca 78 fd 3e 39 23 e9 3e 10 b2 ac 3e
       0.47403097 0.49506217 0.45534685 0.337296
0000c0 93 30 b9 3e 34 e4 3f 3e 00 c1 db 3e 00 38 0f 3e
       0.36169872 0.18739396 0.42920685 0.13986206
0000d0 39 83 6e 3e 05 a7 76 3e fc 51 8d 3e 3f bd 13 3e
       0.23292245 0.2408715 0.27601612 0.1442766
0000e0 24 34 5b 3e dc 24 27 bd 67 f3 57 3e 06 bf 50 be
       0.21406609 -0.040806636 0.21088944 -0.2038537
0000f0 5a 1d e3 bd 59 df 8d 3e e8 af a8 3d cd 2c 0d 3e
       -0.11089583 0.27709463 0.082366765 0.13786621
000100 5a 62 a5 3d 9e e9 41 be 05 24 ee 3d e6 83 07 bf
       0.080754 -0.18936774 0.11627964 -0.52935636
000110 18 90 13 be e0 a0 80 3e cb 8d 0e be 2b df 82 3c
       -0.14410436 0.25122738 -0.13921277 0.015975555
000120 22 1b 3e be c4 08 99 be ac b7 78 bc fb 84 44 bf
       -0.18565038 -0.298895 -0.01518051 -0.7676541
000130 ac 5d 2c bf 80 8b 3a 3e 22 4e bb be 79 69 8b bb
       -0.6733043 0.18217278 -0.36583048 -0.0042545167
000140 88 ac e5 be 26 80 5e 3d 9b f4 4a be 8a c0 1c be
       -0.44858193 0.05432143 -0.19819872 -0.15307823
000150 65 52 89 be 0f da 98 be b0 f7 46 3e 82 e5 b2 bf
       -0.26820675 -0.29853866 0.19430423 -1.397629
000160 7e 21 85 3d c2 fd 4d 3e a8 a3 97 bd 0c 1a be 3e
       0.06500529 0.20116332 -0.07404262 0.37129247
000170 72 5a 8a be c4 e0 99 3e 82 bd 4b 3e 02 91 60 bd
       -0.2702213 0.30054295 0.1989651 -0.05482579
000180 54 9d d2 3d d3 27 5f 3c 66 94 9f 3d 1b 42 26 bd
       0.10283914 0.013620335 0.07791977 -0.040590387
000190 42 53 16 3d 68 2f 65 be 29 c2 8f 3e 6f 4f 9f bd
       0.036700495 -0.22381365 0.2807782 -0.07778823
0001a0 9f 21 15 be aa 0a 04 3e 3d c6 1f be 6f 09 a4 3e
       -0.14563607 0.12894693 -0.15602966 0.32038447
0001b0 ae f9 c7 bd 79 0c 1e 3f 50 63 7f 3e 1d 9c ee bd
       -0.097644195 0.6173778 0.24940228 -0.1165087
0001c0 ae da 94 bd 15 01 93 3d c5 7a 52 3d df 06 61 3c
       -0.07268272 0.07177941 0.051386613 0.013734548
0001d0 81 fa a4 3e 8a 67 8b be f3 34 46 3d 5a f4 17 be
       0.3222237 -0.27227432 0.04839034 -0.14839306
0001e0 c2 a2 88 bd 5c ad 4d bd 03 5f 02 bd c3 52 e7 be
       -0.066716686 -0.050214157 -0.03182889 -0.4518033
0001f0 4f 5d 1f bb 5f 90 43 bf 72 42 94 3e 6c 56 91 be
       -0.002431709 -0.7639217 0.28956944 -0.28386247
000200 7a fd a2 be 60 57 a0 be b6 8b 37 bf 35 d9 04 bf
       -0.31834012 -0.31316662 -0.71697557 -0.5189393
000210 e4 b5 f1 bd 8c 1e 88 be a7 88 9a 3e fc 25 2b be
       -0.11802271 -0.26585805 0.30182382 -0.16713709
000220 23 ea a5 be 22 36 16 3f 08 ca f7 bd f0 e7 2e 3e
       -0.32405195 0.5867635 -0.12099081 0.17080665
000230 49 2b 10 3e 1b 84 fb 3d b3 67 6b 3e 37 00 a0 3d
       0.14079012 0.122810565 0.22988777 0.07812541
000240 3b cc b3 be 60 e7 10 3f cb be 24 be 66 80 fc bc
       -0.35116753 0.5660305 -0.16088407 -0.030822944
000250 57 e5 18 3e 9a 8a 39 3d 5a c0 1d 3f 9c e5 c6 3d
       0.14931236 0.045298196 0.6162163 0.09711763
000260 bb d7 a9 be 5d 33 bd 3e 08 72 2b be 83 ad e5 bd
       -0.33172402 0.3695325 -0.16742718 -0.11214735
000270 5f d2 38 3e d3 0b eb bd 47 a7 13 3f c8 9c 15 bd
       0.18049 -0.11476865 0.5767712 -0.03652647
000280 b8 7c de bd e4 d6 90 3e b0 cf 5a be 7a 8e 47 be
       -0.10863632 0.2828895 -0.21368289 -0.19487944
000290 8a e5 a5 bc 31 af d1 bd c7 5d a7 3e 16 c9 96 bd
       -0.020251054 -0.10238493 0.32688734 -0.07362573
0002a0 50 79 57 be c2 4d 1a 3e d0 e4 81 3d 54 19 12 bf
       -0.21042371 0.15068725 0.06342471 -0.570699
0002b0 f0 9d 09 3c ab db 98 3e 3e 51 37 3c 60 e5 13 3f
       0.008399472 0.29855093 0.011188803 0.57771873
0002c0 e0 63 e7 bb bb 00 d3 3e 18 3a c7 3b eb bf 55 be
       -0.0070614666 0.41211495 0.0060799234 -0.20873992
0002d0 fd 5b db 3c 5e a3 84 be 84 6d 1c 3c 09 a9 11 bf
       0.026777262 -0.2590589 0.009547595 -0.5689855
0002e0 14 3a cb 3b 00 09 37 bf f3 68 d1 3c 61 dd 2f be
       0.006201992 -0.7149811 0.025562739 -0.17174293
0002f0 42 13 85 3c 43 88 fd 3d 48 a4 23 3d 93 88 d7 3e
       0.016244534 0.123795055 0.039951593 0.42096385
000300 64 1c 4a 3d 24 84 34 3f 23 92 99 bd 47 ef 0d be
       0.04934348 0.7051413 -0.074985765 -0.13860808
000310 78 83 29 bd 39 72 f2 bd 9e 71 fd 3c 9a 55 a4 be
       -0.041385144 -0.118381925 0.030937966 -0.3209656
000320 a1 37 00 3e 78 1d ac be 13 5a ed bd 14 2c 43 be
       0.1252122 -0.33616233 -0.11589446 -0.19059783
000330 0e 50 12 be 14 65 1b 3d 07 05 2f be 62 e2 3f 3e
       -0.14288351 0.037938192 -0.17091762 0.18738702
000340 a8 00 1d be 96 72 39 3e 80 07 ab 3b b0 0e 7a 3e
       -0.15332282 0.18110117 0.0052194 0.24419665
000350 a9 27 7a 3e 9e 72 c1 bf b1 1b a1 3d e5 30 f8 bd
       0.24429192 -1.5113103 0.0786661 -0.12118701
000360 88 9b 4c bd 38 01 a2 3e 27 73 a6 be af e5 ea 3e
       -0.049953014 0.31641555 -0.3250973 0.4587836
000370 8a ac 00 3e 8a 9e ac be b9 f3 15 3e e6 b5 dd 3d
       0.12565818 -0.33714706 0.14643754 0.1082571
000380 08 95 da 3d ca ee 95 3e b9 92 27 3d 83 7f 15 3f
       0.10672957 0.29283744 0.04091141 0.5839769
000390 c3 da af 3e 1b 7b 81 be 0a 51 69 3d 41 3b dd 3d
       0.3434659 -0.25289235 0.05696205 0.108023174
0003a0 1f a9 0b 3c bf de 5b 3e 4f 35 d6 bd 14 7b b0 3e
       0.008524208 0.2147169 -0.104593866 0.344689
0003b0 6b ad 19 3f d9 67 b9 be a2 db fd 3d d3 89 a0 bc
       0.6003024 -0.36212042 0.12395407 -0.01959697
0003c0 aa ed d6 3b a8 81 50 be 8b 71 29 3d ce b4 ab bd
       0.0065590935 -0.2036196 0.04136805 -0.08384095
0003d0 da b5 aa 3e a5 81 ed be fa 47 75 bb 9e ff fa be
       0.33341867 -0.46387973 -0.0037426935 -0.49023145
0003e0 c8 46 54 be b4 b2 70 be 96 1e 94 be cc cb 5c be
       -0.20730126 -0.2350567 -0.28929585 -0.21562117
0003f0 ca 6d c5 bd 5c 18 45 be 07 62 25 3d df 8d c7 3f
       -0.09640081 -0.19247574 0.04037669 1.5590171

sequential/dense_1/MatMul f4 [10, 20]
000000 6a f8 f6 be 4c a8 22 bf 64 d1 9b 3e d6 f9 66 3e
       -0.482364 -0.6353805 0.3043319 0.22556242
000010 9b 87 53 3e 28 ef 04 3f 2d 0d f1 be e6 68 77 bf
       0.20657198 0.51927423 -0.47080365 -0.9664444
000020 f7 e0 f4 be 9c 9c 90 be 0b 23 62 3f 59 14 9a be
       -0.47827885 -0.28244483 0.8833472 -0.3009365
000030 e6 d1 ce 3e da a1 0d 3f 26 0a fe 3e b9 52 ad be
       0.40394515 0.5532509 0.49617118 -0.33852175
000040 46 a7 e4 3d eb f3 e6 bd bd 51 3c 3e b3 42 07 3e
       0.111647174 -0.112769924 0.18390556 0.13209037
000050 d4 76 20 bf 47 e1 2a bf d8 f9 b9 bd 1d 56 2a bf
       -0.6268132 -0.66749996 -0.09080857 -0.6653765
000060 d9 26 14 3f 98 ce 13 3f 6f d5 7c bd 54 cb 75 3d
       0.57871777 0.5773711 -0.061726984 0.060008362
000070 2e 17 32 bf af 7e df 3d 81 7a c5 be eb 9a e6 3e
       -0.6956662 0.10912835 -0.38570026 0.45040068
000080 74 61 05 be eb 11 52 3e 30 a0 a2 bf 0c 09 ef bd
       -0.13025457 0.20514648 -1.2705135 -0.116716474
000090 f9 88 55 3e d2 9f 17 3f 63 0a a6 3f d4 af 41 3e
       0.20853032 0.5922824 1.297192 0.1891473
0000a0 e1 2d a6 3e e5 24 9c be 48 7e 24 bf ec 3e c2 3e
       0.32456878 -0.30496898 -0.6425519 0.3793863
0000b0 54 34 d1 be 55 1a 00 bf 6a 78 1e 3f 90 dd c3 bb
       -0.40860236 -0.5004018 0.6190249 -0.00597734
0000c0 d5 2d b2 3f 19 81 8a 3d b0 aa d5 3e 53 21 06 3f
       1.3920237 0.06762905 0.41731787 0.523946
0000d0 49 f8 83 3c f2 21 35 be 7b 34 97 3f 0b ce 75 bd
       0.016109603 -0.1768873 1.1812891 -0.06001095
0000e0 45 ee 51 3e 2e 02 cf bc 6f 8b 62 bd 39 78 37 be
       0.20501049 -0.025269594 -0.055308755 -0.17916955
0000f0 5c 46 27 3f 5b 72 6a bd 86 ab 0e bf b2 aa b8 3e
       0.65341735 -0.057237964 -0.55730474 0.3606773
000100 db 39 f2 be bc 0f 30 be 33 8b 08 3f 86 8e 6d bf
       -0.47309765 -0.17193502 0.533374 -0.927956
000110 e8 ea ae be 7a 9a f8 3e 01 16 2b bf 81 6b 5d 3e
       -0.34163594 0.48555356 -0.6683045 0.2162304
000120 59 6d 15 bf f2 d7 7d bf a9 f0 cb bd e1 bd b5 be
       -0.58369976 -0.9915763 -0.09958012 -0.3549643
000130 76 62 85 3e 8a 58 ac 3e c9 28 ab 3e 64 4a 86 3f
       0.26051682 0.336613 0.33429554 1.0491452
000140 e8 c8 d4 bd d9 2b be be c5 e6 14 3f eb bf 08 3e
       -0.10389882 -0.37142828 0.58164626 0.13354461
000150 f5 42 13 3f 81 50 c5 3d 59 29 5d be a4 bb 83 3e
       0.57524043 0.096344955 -0.21597804 0.25729096
000160 d6 c9 d3 3c bb b7 59 3f 8e 51 5f bf 60 1f 65 be
       0.025853079 0.85045975 -0.8723382 -0.2237525
000170 ca f0 38 bf e7 0b d9 be 0d 05 ef 3e 02 22 7d 3e
       -0.72242415 -0.42391893 0.4668354 0.24720004
000180 49 fa 9d bf 93 63 12 3f 2e dd a4 bd 96 b4 32 3f
       -1.2342006 0.5718319 -0.08049999 0.698068
000190 37 21 07 3f 4d 63 0a 3f c1 a7 15 be 47 a9 8f 3e
       0.52785057 0.5405777 -0.14614774 0.28058836
0001a0 8e d1 62 3f 9a 87 9e bc dc 14 02 3f 8b ca e0 bd
       0.88601005 -0.01935177 0.5081308 -0.10976132
0001b0 86 42 30 3f 38 18 8d bb aa 69 f7 3e f3 60 f3 3e
       0.68851507 -0.0043058656 0.48322803 0.47534904
0001c0 b9 1b 7b bd b0 7f af 3e 91 72 41 3f d9 8d 84 3c
       -0.061305735 0.34277105 0.7556544 0.01618092
0001d0 8b 7b ef 3a bc 54 40 3f e6 eb 2c bb fd fd c8 be
       0.0018271072 0.75129294 -0.0026385724 -0.39256278
0001e0 cb 82 2b 3f df aa 88 3f 3b 38 0e 3e 78 93 3f 3f
       0.6699645 1.0677146 0.13888638 0.74834394
0001f0 c7 bf 97 be 46 af 08 3f 2c 2e 2a be 45 df ae 3e
       -0.29638502 0.53392446 -0.16619176 0.34154716
000200 ac bf a8 3e b4 cf b0 be d1 a1 2f 3f 0f 15 4b be
       0.32958734 -0.34533465 0.6860629 -0.19832252
000210 fc 00 12 3d 0c 6c ae 3e 51 6b d3 3e 40 90 e5 3e
       0.03564547 0.34066808 0.41292813 0.44836617
000220 98 ad 6c 3e d3 1b d8 be 2b 2c 23 3d 48 a8 99 3e
       0.23113096 -0.42208728 0.039837044 0.300112
000230 da a6 68 3f b4 05 a4 3e a0 f8 2d 3f 6b 53 2e 3e
       0.90879595 0.320356 0.67957497 0.17024009
000240 41 0f a7 3d 5a ff f5 3d 16 cc f6 bd 3e 6a d3 3e
       0.08157206 0.12011595 -0.12050645 0.41291994
000250 23 48 f9 3e 6f 5b 6b 3f 2c b6 5b 3f 6f ac cc bd
       0.48687848 0.9193639 0.8582485 -0.099938266
000260 16 cf f1 3d a3 28 bd 3e 8b 28 24 3f fc dc f7 be
       0.11807077 0.36945066 0.64124364 -0.48410785
000270 10 d8 f5 3e 47 ff e9 3e 18 ed 3d bb 65 7d fa 3e
       0.48016405 0.45702574 -0.002898043 0.48923793
000280 8a 71 9f bf 42 6e 6a bf 2b 7e b8 bd 97 a5 80 3e
       -1.2456524 -0.9157449 -0.0900844 0.25126335
000290 4d bb 1c 3d 30 04 84 3e 88 35 c2 3e 1d f2 3d bf
       0.03826456 0.25784445 0.37931466 -0.7419756
0002a0 71 54 0a bf ae e5 f6 be 8f ba 66 bf 6f 4f 66 bd
       -0.540351 -0.48222107 -0.90128416 -0.056228098
0002b0 86 c8 55 bf d6 7d 2e bf 47 8a 51 bf 42 0a 48 3f
       -0.835091 -0.6816076 -0.8185162 0.7814065
0002c0 cc 2e 44 bf a8 7b af 3e c6 b1 c8 3e a6 9c 97 3c
       -0.76633906 0.3427403 0.3919813 0.018507313
0002d0 9e c0 12 be 47 3c 09 bf 21 1b 14 bf 1c e5 47 3e
       -0.1433129 -0.536076 -0.57853895 0.19520992
0002e0 85 33 3b bc 64 8e b4 3d d9 0a c5 3e 90 41 a9 3e
       -0.011425857 0.08816221 0.3848484 0.33057833
0002f0 5d 8e 07 3f c4 ba 7b 3f b5 d7 30 bf 99 cd d9 be
       0.52951604 0.98331857 -0.6907914 -0.4253967
000300 dc a7 f3 3e 3c c4 99 3e 57 e7 0e 3f 78 6b e0 3e
       0.47589004 0.30032527 0.55821747 0.43831992
000310 b6 06 dd 3e 50 15 68 be 35 3d 21 3c 5d 62 e4 be
       0.43169183 -0.2266438 0.009841253 -0.44606295

sequential/dense_2/MatMul f4 [7, 10]
000000 a9 4b 3c 3e 5b f1 b2 3e fe 23 33 bf 83 f0 8b bf
       0.18388237 0.34949765 -0.69976795 -1.0932773
000010 79 07 76 bf 0b fe d4 3e 18 83 9b bd 6f 19 2d 3f
       -0.9610515 0.4160007 -0.075933635 0.67616934
000020 d5 13 06 be 0d 6f 79 bf 6f a8 55 be 1e 25 13 3e
       -0.13093503 -0.97435075 -0.20865034 0.14369628
000030 09 51 75 be dd 1d 2a 3e 24 18 ca be d9 07 9a bf
       -0.23956694 0.16612954 -0.39471543 -1.2033645
000040 ec e2 45 3f 69 24 32 bf 3f a8 7f 3f 37 fe d4 be
       0.7729938 -0.6958681 0.998661 -0.416002
000050 6d 0d c6 3e a9 43 a0 bd 9d b8 1c bf 05 6b 91 be
       0.38682118 -0.07825405 -0.612192 -0.28401962
000060 db 4e 92 3f 64 30 52 bd 23 b8 a0 be 01 1c f6 3e
       1.1430315 -0.05131568 -0.31390485 0.4806824
000070 0c b9 33 be 2d d2 1f 3f 9b 7f 67 bf 72 02 79 be
       -0.17551059 0.6243008 -0.90429085 -0.24317339
000080 26 02 82 3e b8 ce 8b 3f 04 4e e8 bd db 22 1e 3e
       0.25392264 1.092246 -0.11343005 0.15442984
000090 c7 92 79 bf 1f cd d2 3e bf 84 aa be 36 67 8b 3e
       -0.9748959 0.4117212 -0.33304402 0.2722718
0000a0 2b 32 6d bf 8b d8 fd 3d a3 02 7c 3e 92 e5 18 bf
       -0.92654675 0.12394818 0.24610381 -0.59725296
0000b0 34 b6 c2 bd 19 3e 69 3f f0 8d 30 bf 39 31 45 bf
       -0.09507409 0.9111038 -0.6896658 -0.7702823
0000c0 ed 5b 4d 3f a8 26 11 3e f7 cb a5 bd f1 7b ca 3e
       0.8021839 0.14174902 -0.08095544 0.39547685
0000d0 22 b7 75 bf 76 f7 79 be 36 f9 1a bd 4e b3 61 3e
       -0.95982563 -0.24410805 -0.037835322 0.22041056
0000e0 78 ff 96 bd 8a e0 16 3e db d8 77 3e 01 12 dd 3d
       -0.073729455 0.14734092 0.24203818 0.107944496
0000f0 41 3e bd 3d e2 d5 a6 bf 94 a4 29 3e 90 eb 8c be
       0.092403896 -1.3034022 0.16566688 -0.2752347
000100 0c c9 26 3e c9 ad 67 3f b2 b6 0f 3f 2e b0 c8 3e
       0.16287631 0.9049955 0.56138146 0.39196914
000110 50 10 9c bf a9 a4 21 be
       -1.2192478 -0.15785469
